…
    "    "
   ]
  },
  {
   "cell_type": "code",
   "execution_count": 14,
   "metadata": {
    "collapsed": false,
    "scrolled": true
   },
   "outputs": [
    {
     "name": "stdout",
     "output_type": "stream",
     "text": [
      "____________________________________________________________________________________________________\n",
      "Layer (type)                     Output Shape          Param #     Connected to                     \n",
      "====================================================================================================\n",
      "input_1 (InputLayer)             (None, 1, 320, 256)   0                                            \n",
      "____________________________________________________________________________________________________\n",
      "convolution2d_1 (Convolution2D)  (None, 32, 320, 256)  320         input_1[0][0]                    \n",
      "____________________________________________________________________________________________________\n",
      "convolution2d_2 (Convolution2D)  (None, 32, 320, 256)  9248        convolution2d_1[0][0]            \n",
      "____________________________________________________________________________________________________\n",
      "maxpooling2d_1 (MaxPooling2D)    (None, 32, 160, 128)  0           convolution2d_2[0][0]            \n",
      "____________________________________________________________________________________________________\n",
      "convolution2d_3 (Convolution2D)  (None, 64, 160, 128)  18496       maxpooling2d_1[0][0]             \n",
      "____________________________________________________________________________________________________\n",
      "convolution2d_4 (Convolution2D)  (None, 64, 160, 128)  36928       convolution2d_3[0][0]            \n",
      "____________________________________________________________________________________________________\n",
      "maxpooling2d_2 (MaxPooling2D)    (None, 64, 80, 64)    0           convolution2d_4[0][0]            \n",
      "____________________________________________________________________________________________________\n",
      "convolution2d_5 (Convolution2D)  (None, 128, 80, 64)   73856       maxpooling2d_2[0][0]             \n",
      "____________________________________________________________________________________________________\n",
      "convolution2d_6 (Convolution2D)  (None, 128, 80, 64)   147584      convolution2d_5[0][0]            \n",
      "____________________________________________________________________________________________________\n",
      "maxpooling2d_3 (MaxPooling2D)    (None, 128, 40, 32)   0           convolution2d_6[0][0]            \n",
      "____________________________________________________________________________________________________\n",
      "convolution2d_7 (Convolution2D)  (None, 256, 40, 32)   295168      maxpooling2d_3[0][0]             \n",
      "____________________________________________________________________________________________________\n",
      "convolution2d_8 (Convolution2D)  (None, 256, 40, 32)   590080      convolution2d_7[0][0]            \n",
      "____________________________________________________________________________________________________\n",
      "maxpooling2d_4 (MaxPooling2D)    (None, 256, 20, 16)   0           convolution2d_8[0][0]            \n",
      "____________________________________________________________________________________________________\n",
      "convolution2d_9 (Convolution2D)  (None, 512, 20, 16)   1180160     maxpooling2d_4[0][0]             \n",
      "____________________________________________________________________________________________________\n",
      "convolution2d_10 (Convolution2D) (None, 512, 20, 16)   2359808     convolution2d_9[0][0]            \n",
      "____________________________________________________________________________________________________\n",
      "upsampling2d_1 (UpSampling2D)    (None, 512, 40, 32)   0           convolution2d_10[0][0]           \n",
      "____________________________________________________________________________________________________\n",
      "merge_1 (Merge)                  (None, 768, 40, 32)   0           upsampling2d_1[0][0]             \n",
      "                                                                   convolution2d_8[0][0]            \n",
      "____________________________________________________________________________________________________\n",
      "convolution2d_11 (Convolution2D) (None, 256, 40, 32)   1769728     merge_1[0][0]                    \n",
      "____________________________________________________________________________________________________\n",
      "convolution2d_12 (Convolution2D) (None, 256, 40, 32)   590080      convolution2d_11[0][0]           \n",
      "____________________________________________________________________________________________________\n",
      "upsampling2d_2 (UpSampling2D)    (None, 256, 80, 64)   0           convolution2d_12[0][0]           \n",
      "____________________________________________________________________________________________________\n",
      "merge_2 (Merge)                  (None, 384, 80, 64)   0           upsampling2d_2[0][0]             \n",
      "                                                                   convolution2d_6[0][0]            \n",
      "____________________________________________________________________________________________________\n",
      "convolution2d_13 (Convolution2D) (None, 128, 80, 64)   442496      merge_2[0][0]                    \n",
      "____________________________________________________________________________________________________\n",
      "convolution2d_14 (Convolution2D) (None, 128, 80, 64)   147584      convolution2d_13[0][0]           \n",
      "____________________________________________________________________________________________________\n",
      "upsampling2d_3 (UpSampling2D)    (None, 128, 160, 128) 0           convolution2d_14[0][0]           \n",
      "____________________________________________________________________________________________________\n",
      "merge_3 (Merge)                  (None, 192, 160, 128) 0           upsampling2d_3[0][0]             \n",
      "                                                                   convolution2d_4[0][0]            \n",
      "____________________________________________________________________________________________________\n",
      "convolution2d_15 (Convolution2D) (None, 64, 160, 128)  110656      merge_3[0][0]                    \n",
      "____________________________________________________________________________________________________\n",
      "convolution2d_16 (Convolution2D) (None, 64, 160, 128)  36928       convolution2d_15[0][0]           \n",
      "____________________________________________________________________________________________________\n",
      "upsampling2d_4 (UpSampling2D)    (None, 64, 320, 256)  0           convolution2d_16[0][0]           \n",
      "____________________________________________________________________________________________________\n",
      "merge_4 (Merge)                  (None, 96, 320, 256)  0           upsampling2d_4[0][0]             \n",
      "                                                                   convolution2d_2[0][0]            \n",
      "____________________________________________________________________________________________________\n",
      "convolution2d_17 (Convolution2D) (None, 32, 320, 256)  27680       merge_4[0][0]                    \n",
      "____________________________________________________________________________________________________\n",
      "convolution2d_18 (Convolution2D) (None, 32, 320, 256)  9248        convolution2d_17[0][0]           \n",
      "____________________________________________________________________________________________________\n",
      "convolution2d_19 (Convolution2D) (None, 1, 320, 256)   33          convolution2d_18[0][0]           \n",
      "====================================================================================================\n",
      "Total params: 7846081\n",
      "____________________________________________________________________________________________________\n",
      "None\n"
     ]
    }
   ],
   "source": [
    "modelTest = get_unet()\n",
    "print(modelTest.summary())\n"
…
